model/mean_pool_best_model.pt (torch, 4847 bytes, 2 tensors)

embedding.weight f4 [22, 32]
00000000: 0000 0000 0000 0000 0000 0000 0000 0000
00000010: 0000 0000 0000 0000 0000 0000 0000 0000
00000020: 0000 0000 0000 0000 0000 0000 0000 0000
00000030: 0000 0000 0000 0000 0000 0000 0000 0000
00000040: 0000 0000 0000 0000 0000 0000 0000 0000
00000050: 0000 0000 0000 0000 0000 0000 0000 0000
00000060: 0000 0000 0000 0000 0000 0000 0000 0000
00000070: 0000 0000 0000 0000 0000 0000 0000 0000
00000080: 2aec 59c0 cd05 34c0 f611 1540 fe23 10c0
00000090: f9b3 dc3f 1b63 a53f 844b 0c40 d7e4 86c0
000000a0: bcff 5ec0 d2be 433e 3a61 8ac0 f460 b6bf
000000b0: 9b42 3bc0 90f0 0ac0 bffd 283f 4962 3e40
000000c0: 1cd8 4dc0 8035 9cbe 288c bfbe 8afc 9fc0
000000d0: bf58 47bf 7556 d2bf 878d d33f 6226 0e40
000000e0: 9a80 073f 8a7b de3f 34f9 babe 463d 2a3f
000000f0: e537 c7bf 3e9d da3e edc8 cd3e ed02 29c0
00000100: 0663 a63f 8501 91bf 7fc7 703f 862a ba3c
00000110: e44d bebe 9707 b13f 287d 4abf dbde debf
00000120: eaba 013f 9541 43be 0d2c a1be 9bc7 1940
00000130: 1a27 973f 851f 883d f2b8 1a3f 42c0 80be
00000140: 3c39 5ebe 060a 0dbc 07bb cfbd 0e54 d0be
00000150: 7598 0bbf 6f26 56be 6a3e f8bd 5ceb 503f
00000160: 3e6e 7f3f c985 8e3f 8740 48bf 1e04 7a3e
00000170: 8013 f4be add1 553e d48f 703d b498 a5be
00000180: d12d 95bf 09b3 bcbe fd10 01bf bb6d bbbe
00000190: 1ad0 2fbf 0431 15bf 9ed5 9a3f 3c02 093e
000001a0: 403f 9bbf daf0 bcbf 0e79 0ebe 3fe0 21be
000001b0: a98c d0bd 98c0 2b40 eae8 d23e 9985 7ebd
000001c0: 9460 0bbf c0f0 bc3f 9ba1 e63f f540 383f
000001d0: 8702 843e 896f 61be 5015 a73f 9a18 07c0
000001e0: 7114 be3e ff7b 07bd f2f0 e33e c63c 04c0
000001f0: 1d6e bc3f 3ec4 34bf f4ee 813f e43b d93e
00000200: 9f0d b9bf e4b2 b2bf 04b0 e1bf 847e b3be
00000210: 600f f6bd e7f2 a23e 44da 32bf 9f9f 59c0
00000220: 1b6a 04c0 2528 c9be 2b2b 063e bdc3 25bf
00000230: fce6 08c0 69d2 9abf 65ff 6e3e 0cb4 4640
00000240: f408 26c0 0cf2 80bf 6ba5 b2be d3f2 69c0
00000250: 6334 69bf 9816 78bf 8940 9abc d35a 733f
00000260: 20ae aebf 4938 e8bf 32cc 1a3f 217d 6d3f
00000270: b5e8 0ec0 0196 0240 06a2 713f 6e73 d1bf
00000280: 208c cfbc 4fd1 58bf 6fa1 2e3f 36cd 8b3f
00000290: c9f9 d23f 2eb7 203d 76a7 d33f 55a9 2bbf
000002a0: 9772 2ebf 7f05 62bf 9e11 dfbe ef97 3fbf
000002b0: 34f7 d2bf 3cc0 6dbf 2a04 d6be 046f 15bf
000002c0: e059 41bd 9348 b53e 4f74 09bf acb3 27bf
000002d0: 608f 20c0 9782 223f 784a 2540 0e4b 5440
000002e0: 5d4e a2bf 9437 8ebf 0d59 2a3f 3385 26bf
000002f0: b8c1 2fbe 1a57 873d 1e39 223f 6da8 5bbf
00000300: b32a 25bf 77d3 de3e ca1c a03f c8b7 fb3f
00000310: 2cbf aebe 10f6 1e3f 6eff 11be 7197 e73d
00000320: 397e 703f 305a f53f 2fdd dc3e a75d 8b3e
00000330: bc22 853f e954 d13e ed02 28bf 86a8 aabe
00000340: 2018 453e 08e2 93bf c822 83be 5cc4 5c3d
00000350: adbb 9abe 3aa5 94bf 1042 913f bd3f 65bf
00000360: 3bdf 053f 9092 84be 1ad2 d6be 3774 ebbf
00000370: 0399 86be 1182 08bf aa7f 09bf c21f 70be
00000380: 1065 9abb 2f2b c23f dfff 80bf 0fa1 eabe
00000390: ec4e f9bf df8c f33e 03c8 08c0 ab13 153f
000003a0: a5c3 2040 bedb 0440 b646 bb3f 5006 083e
000003b0: 5f74 ae3f 359e a1bf b7fb aa3f 1534 9dbf
000003c0: 5a71 aa3e cf31 823f 60c4 5dbf eccc d03f
000003d0: a6dc 113f bda7 863f b2ba b1be a9a1 7dbf
000003e0: bb85 5b3f 7d76 603f 3406 97be faf9 1c3f
000003f0: a525 693f 09df 08bf 16c3 80bf 6e0c bc3f
0.0 0.0 0.0 0.0 0.0 0.0 0.0 0.0
0.0 0.0 0.0 0.0 0.0 0.0 0.0 0.0
0.0 0.0 0.0 0.0 0.0 0.0 0.0 0.0
0.0 0.0 0.0 0.0 0.0 0.0 0.0 0.0
-3.4050393 -2.812854 2.3292212 -2.2521968 1.7242423 1.292087 2.192109 -4.2154346
-3.4843588 0.19115761 -4.3243685 -1.4248338 -2.9259403 -2.1709328 0.66012186 2.9747488
-3.2163153 -0.30509567 -0.37411618 -4.9995775 -0.7786979 -1.6432635 1.6527566 2.2210927
0.52930605 1.7381451 -0.36518252 0.66499746 -1.5563933 0.4269809 0.40192357 -2.6408036
1.299897 -1.1328589 0.94054407 0.022725355 -0.371688 1.3830441 -0.79097223 -1.741176
0.50675833 -0.19067986 -0.3147892 2.402808 1.1808808 0.06646637 0.60438454 -0.2514668
-0.2170152 -0.008608347 -0.101430945 -0.4068913 -0.54529506 -0.20913099 -0.121212795 0.8160913
0.9977759 1.1134578 -0.7822346 0.24415633 -0.47671127 0.20880766 0.058730915 -0.32343066
-1.1654607 -0.36855343 -0.5041655 -0.36607155 -0.6867691 -0.58277917 1.2096441 0.13379759
-1.2128677 -1.4761002 -0.13913366 -0.158082 -0.10183079 2.68363 0.41193324 -0.062139127
-0.5444424 1.4760971 1.8018068 0.71974117 0.25783178 -0.22015204 1.3053379 -2.1108766
0.3712497 -0.033077236 0.44519764 -2.0662093 1.4721104 -0.7061194 1.0151048 0.42428505
-1.4457282 -1.3960843 -1.7631841 -0.3505746 -0.12014651 0.31825945 -0.69864297 -3.4003675
-2.0689762 -0.3928844 0.13102405 -0.647518 -2.1390982 -1.2095462 0.23339613 3.1047392
-2.5942965 -1.0073867 -0.3489183 -3.6554458 -0.9109556 -0.96909475 -0.0188296 0.9506046
-1.3646889 -1.8142177 0.6046783 0.92769057 -2.2329533 2.0404055 0.94387853 -1.6363351
-0.025335371 -0.8469438 0.6821508 1.0922 1.6482478 0.039237194 1.653548 -0.67055255
-0.681436 -0.88289636 -0.43568128 -0.7484121 -1.648169 -0.9287145 -0.41800052 -0.5837252
-0.047204852 0.35406932 -0.536931 -0.6550853 -2.508751 0.63480514 2.5826702 3.317081
-1.2680165 -1.1110711 0.6654213 -0.65046996 -0.17163742 0.0660841 0.63368404 -0.8580387
-0.6451828 0.4352071 1.2508786 1.966546 -0.34130228 0.6209421 -0.14257595 0.11308182
0.939426 1.9168148 0.431375 0.2721989 1.0401225 0.40885094 -0.65629464 -0.33331698
0.19247484 -1.1553354 -0.25612473 0.0538982 -0.3022131 -1.1612923 1.1348286 -0.8955038
0.5229375 -0.25893068 -0.4195717 -1.8394841 -0.26288614 -0.53323466 -0.53710425 -0.23449615
-0.0047117546 1.5169429 -1.0078086 -0.45826003 -1.947721 0.47568414 -2.1372077 0.58233136
2.5119412 2.075912 1.4630954 0.13283658 1.3629264 -1.2626406 1.3358067 -1.2281519
0.33289605 1.017145 -0.8662777 1.6312537 0.5697731 1.051994 -0.3471275 -0.990748
0.8575093 0.876808 -0.2949692 0.61318934 0.91073066 -0.53465325 -1.0059536 1.4691293

fc.weight f4 [1, 32]
00000000: 06ba 2b3e 2e8e 0e3e c15f 0dbe 2819 76bc
00000010: 62fc 87bd e4c4 51bc f46a 96bd 3d4c 613e
00000020: 5daf 043e 7dca 603e 50b2 f33e 0e65 b0bc
00000030: 0269 0d3f fa07 84bc 482b a93d 99e0 96be
00000040: fc4c 8c3e a87d 563e 07b7 f23c a9db 5b3f
00000050: baf1 7b3d a6c8 343c 3ee6 84be 27ec edbe
00000060: 8b71 063e acba 6b3e 9e39 58be 98ac e9bc
00000070: 8e0e 4d3e 6093 2dbe a29b d8bd 33be e73d
0.16770181 0.13921425 -0.13806058 -0.015020646 -0.06639935 -0.01280329 -0.073446184 0.22001739
0.12957521 0.21952243 0.4759698 -0.021532562 0.55238354 -0.016117085 0.08260208 -0.2946823
0.27402484 0.20946372 0.02962829 0.8588205 0.061509825 0.011034166 -0.2595691 -0.46469232
0.1312925 0.23020428 -0.21115729 -0.028524682 0.20025083 -0.1695075 -0.105765596 0.113155745
